time series prediction pytorch implementation/fc_model.pt (torch, 112211 bytes, 9 tensors)

model.0.weight f4 [128, 10]
0	0x3d7b65a5	0.061376233
1	0xbdb3c76f	-0.08778273
2	0xbe2d8c52	-0.16948059
3	0x3e528e2c	0.20562047
4	0xbc95b644	-0.018275388
5	0xbde0d1a5	-0.109774865
6	0x3ea0ef28	0.31432462
7	0xbe7324e3	-0.2374454
8	0x3d850c67	0.06496506
9	0xbe937b42	-0.28804976
10	0xbe020932	-0.1269882
11	0xbe4708a2	-0.19436887
12	0x3e9dd3fa	0.30825788
13	0x3e8a8635	0.27055517
14	0x3e0b7ae1	0.13621093
15	0xbe232db4	-0.15935403
16	0x3d8dc453	0.069222115
17	0xbcd26d72	-0.025686953
18	0xbdc16ce5	-0.09444598
19	0xbe6bf8ee	-0.23044178
20	0xbe91e935	-0.28498235
21	0x3ddcafd5	0.10775725
22	0x3b0d3e8d	0.0021552176
23	0xbdeb14c3	-0.11478569
24	0xbe71e809	-0.2362367
25	0x3d59f2d4	0.053210095
26	0x3eaa929e	0.33314985
27	0x3dd2ff87	0.10302644
28	0x3df02869	0.117264576
29	0x3be5dead	0.0070150704
30	0xbe2cae04	-0.16863257
31	0x3e085d2d	0.13316794
32	0x3e517a47	0.20456801
33	0x3eada31a	0.339135
34	0xbe11134c	-0.14167517
35	0xbe5241fc	-0.20532984
36	0x3e254383	0.16139035
37	0xbe6531b7	-0.22382246
38	0xbe2a1602	-0.16609958
39	0xbd98f939	-0.074694104
40	0x3d98ec0b	0.074668966
41	0xbe543eb1	-0.2072704
42	0x3e62867a	0.22121611
43	0xbe81e45a	-0.2536953
44	0xbe16f010	-0.14740014
45	0x3e2087ff	0.15676878
46	0x3e1dd5ba	0.15413561
47	0x3e17e368	0.14832842
48	0xbe58018f	-0.21094345
49	0x3e0ad71a	0.13558617
50	0x3b1ae5dc	0.0023635542
51	0x3e85e498	0.26150966
52	0x3d3693b0	0.04457444
53	0xbe4b987b	-0.19882385
54	0xbe578585	-0.21047027
55	0xbe422d1b	-0.18962519
56	0x3dc40606	0.095714614
57	0x3debe8ea	0.11519034
58	0xbdae266e	-0.08503424
59	0x3db098f7	0.08622926
60	0xbe42b4a8	-0.19014227
61	0x3daed2dd	0.08536313
62	0xbce37b20	-0.027768672
63	0x3cd6c2e7	0.026215984
64	0x3e1e406c	0.15454262
65	0x3d90cc0f	0.07070171
66	0x3e83fa15	0.25776735
67	0xbe4a1409	-0.19734205
68	0xbea4c5c4	-0.32182133
69	0x3e7c3894	0.24630958
70	0xbe78c120	-0.24292421
71	0x3d9cd449	0.07657678
72	0xbe8fa9f9	-0.28059366
73	0x3dffbe1b	0.124874316
74	0x3e40005b	0.18750136
75	0x3beaacc0	0.0071617067
76	0xbd61720f	-0.055040415
77	0x3e09f13e	0.13470933
78	0x3e79e873	0.24405079
79	0xbe8c0448	-0.27347016
80	0x3ea46695	0.32109514
81	0xbe1c1881	-0.15243722
82	0xbdd604eb	-0.10450157
83	0x3e922720	0.28545475
84	0xbd0732f9	-0.033007596
85	0x3e5deeec	0.21673173
86	0x3e28e311	0.16492869
87	0xbe4de5e5	-0.20107229
88	0xbe13ae6e	-0.14422008
89	0xbe90546e	-0.28189415
90	0x3e6e06a1	0.23244716
91	0xbbc0e111	-0.005886205
92	0xbc6dbdf2	-0.0145106185
93	0xbe6c929a	-0.23102799
94	0x3ccbbdf3	0.024870848
95	0x3d9b304a	0.0757757
96	0x3c8fc7f1	0.017551394
97	0x3d947386	0.07248597
98	0xbe45a68d	-0.19301815
99	0x3e6fc2ac	0.23414105
100	0xbe07e7ec	-0.13272065
101	0xbdc0b8fe	-0.094102845
102	0xbc4bb282	-0.012432696
103	0x3e8b773a	0.272394
104	0xbe1aee7d	-0.15130039
105	0x3e1a9800	0.15097046
106	0x3ddc8ddc	0.10769245
107	0xbe2529c4	-0.16129214
108	0x3e149166	0.1450859
109	0x3ea0f4da	0.31436807
110	0xbebbf637	-0.36711285
111	0xbe7f9b1b	-0.24961512
112	0xbe8b8023	-0.27246198
113	0xbe4deb55	-0.20109303
114	0x3e36d655	0.17855199
115	0x3ea9086a	0.33014232
116	0x3e22ff8c	0.15917796
117	0x3eabf300	0.33583832
118	0x3e2b4e3b	0.16729061
119	0x3c163415	0.009167691
120	0x3da24cfa	0.07924838
121	0x3e039999	0.12851562
122	0xbe514db9	-0.20439805
123	0x3def61e8	0.11688596
124	0xbd73ce9f	-0.05952322
125	0x3e74ec2d	0.23918219
126	0x3e89b368	0.2689469
127	0x3cd26d3a	0.025686849
128	0xbe86ec61	-0.26352218
129	0xbec21894	-0.37909377
130	0xbedd8fd1	-0.43273786
131	0xbe1c8e4c	-0.15288657
132	0xbeb5adf0	-0.35484266
133	0x3dcc2f20	0.09969926
134	0x3e9b097a	0.30280668
135	0x3df76d92	0.12081446
136	0xbbe8ee5c	-0.007108493
137	0x3e874c17	0.2642524
138	0x3d673dc7	0.0564554
139	0x3e663447	0.2248088
140	0x3d98e968	0.07466394
141	0x3d8ed3a1	0.06973959
142	0x3d2f5e1b	0.042814355
143	0x3e78a848	0.24282944
144	0xbeb62b04	-0.35579693
145	0xbdd4e9ed	-0.1039618
146	0x3d85aa59	0.06526632
147	0xbdd32c9f	-0.10311245
148	0xbe3d10cb	-0.18463437
149	0x3de765cf	0.11298715
150	0xbdc1f1ec	-0.09469971
151	0x3e2951aa	0.16535059
152	0xbe80f552	-0.25187165
153	0x3e0e52bf	0.13898753
154	0xbdc96349	-0.0983339
155	0xbe36beda	-0.17846242
156	0xbd0c2444	-0.034214273
157	0x3c83bb06	0.01608039
158	0x3e4e8bfc	0.20170587
159	0xbd263804	-0.040580764
160	0x3e467f8e	0.19384596
161	0x3e89be8b	0.26903185
162	0x3e04d941	0.12973501
163	0xbe9a9974	-0.301952
164	0xbe2af819	-0.16696204
165	0xbe073c9e	-0.13206717
166	0x3e8252fd	0.2545394
167	0xbeaa4837	-0.3325822
168	0x3e1cd023	0.15313773
169	0x3d0c6f63	0.034285914
170	0xbc84b1d8	-0.016198084
171	0xbc2941b1	-0.010330603
172	0x3e024bf3	0.12724285
173	0xbe229d15	-0.15880235
174	0x3d409204	0.04701425
175	0xbe32e773	-0.17471103
176	0xbe82db21	-0.25557807
177	0x3e04e345	0.12977321
178	0xbe3ccd36	-0.18437657
179	0xbe8f70c8	-0.28015733
180	0x3e29fb05	0.16599663
181	0x3da42d54	0.08016458
182	0xbd9199d1	-0.07109416
183	0xbd1e00d5	-0.038575012
184	0xbe445c41	-0.19175817
185	0xbe80ce25	-0.25157276
186	0x3e708bca	0.23490825
187	0x3e9442ea	0.289573
188	0xbe1bca9e	-0.15214011
189	0xbe6aac90	-0.2291739
190	0x3e958968	0.29206395
191	0xbe29ecfd	-0.1659431
192	0x3ca48984	0.020085104
193	0xbcf24773	-0.029575085
194	0xbe11b0e0	-0.14227629
195	0x3e9adbf9	0.3024595
196	0xbd8d1616	-0.06888978
197	0xbe51e883	-0.20498852
198	0xbe629703	-0.22127919
199	0x3e64b838	0.22335899
200	0xbe8be759	-0.27324942
201	0x3ce0ef1f	0.027457772
202	0xbe10f740	-0.14156818
203	0xbd929ba8	-0.07158595
204	0xbe8ec52d	-0.27884808
205	0xbd60a553	-0.054845165
206	0x3e4048d9	0.18777789
207	0x3e2b19bf	0.1670904
208	0x3e8dd411	0.27700856
209	0x3c2c4ec5	0.010516827
210	0xbec2ee8a	-0.38072616
211	0x3e884279	0.26613215
212	0xbe79bae7	-0.24387704
213	0xbdb71348	-0.089392245
214	0xbd6f4c59	-0.05842242
215	0x3ea07c47	0.31344816
216	0x3e8e9772	0.2784992
217	0x3d91e235	0.07123224
218	0x3ede3422	0.4339915
219	0x3e4d21f1	0.20032479
220	0xbe6e9724	-0.23299843
221	0xbe978672	-0.2959476
222	0x3e6d13a7	0.23152028
223	0xbe9007c7	-0.28130934
224	0x3e0f68ed	0.1400487
225	0x3ea08bbc	0.3135661
226	0x3d76a7bd	0.06021856
227	0x3dc231a4	0.094821244
228	0x3ebe735e	0.37197393
229	0x3ec189c9	0.37800434
230	0xbe76001a	-0.24023476
231	0x3ddc7994	0.10765377
232	0xbdf71c91	-0.120659955
233	0x3db2aafc	0.08724019
234	0xbd0b9caf	-0.034084972
235	0x3e37b8af	0.17941545
236	0xbe87506b	-0.26428542
237	0x3d31a631	0.043371383
238	0x3eb8e581	0.36112598
239	0x3e94e308	0.2907946
240	0xbed7497e	-0.42048258
241	0x3e1ad184	0.15118986
242	0xbd333c9a	-0.043758966
243	0xbe03caad	-0.12870283
244	0x3db6dade	0.08928464
245	0xbe94a220	-0.29029942
246	0x3d80cb40	0.06288767
247	0x3dee7649	0.11643655
248	0x3e6af765	0.22945936
249	0x3ebca162	0.36841875
250	0xbe79f761	-0.24410774
251	0x3e21f61f	0.15816544
252	0xbde25dcb	-0.11053046
253	0xbd690ace	-0.05689507
254	0x3cb5f4d0	0.022211462
255	0xbe8eab52	-0.27865082

model.0.bias f4 [128]
0	0xbe350792	-0.17678669
1	0x3c82c64f	0.015963702
2	0xbcd7a38c	-0.026323102
3	0x3d7bf50c	0.06151299
4	0xbd3d7d9a	-0.04626236
5	0xbb80045d	-0.00390677
6	0xbbb16d84	-0.0054146666
7	0x3d0dc674	0.034613088
8	0xbd89c9e1	-0.067279585
9	0xbdaaf08c	-0.08346662
10	0xbe02a135	-0.12756808
11	0x3e69c2a2	0.22828153
12	0xbde8c8c8	-0.11366421
13	0x3e65ab35	0.22428592
14	0x3d2fcaa4	0.042917863
15	0x3d8e3cd6	0.06945197
16	0xbd34c98c	-0.044137523
17	0xbb1c086e	-0.0023808735
18	0x3d8264ce	0.06366883
19	0xbc97ce63	-0.01853103
20	0x3dc7676d	0.09736524
21	0x3e963513	0.29337367
22	0x3e83bf7b	0.25732026
23	0x3e5a9aab	0.21348064
24	0x3e1fc4b7	0.15602385
25	0xbc11614d	-0.008873296
26	0x3d73c541	0.059514288
27	0xbd6d29b5	-0.057901103
28	0xbdd6bec4	-0.104856044
29	0xbe636e3c	-0.2221002
30	0x3c39a784	0.011331443
31	0xbcfec878	-0.03110145
32	0xbd9b933b	-0.07596441
33	0xbd744cfb	-0.059643727
34	0x3eae975e	0.3409986
35	0x3b84145c	0.0040307473
36	0xbd9e7ca4	-0.07738617
37	0x3e05f3f1	0.13081338
38	0x3d23934a	0.039935388
39	0xbd2d03bb	-0.042239886
40	0x3d5d713a	0.05406306
41	0xbc55c8a2	-0.013048323
42	0xbde15951	-0.11003364
43	0xbd312f3c	-0.043257937
44	0x3d2fedfe	0.042951576
45	0xbdd40280	-0.10352039
46	0x3e386b48	0.18009675
47	0x3d9ee1e2	0.077579275
48	0xbcbbc41d	-0.022920663
49	0x3e22959a	0.15877381
50	0xbe6c838e	-0.23097059
51	0xbde29c76	-0.11064999
52	0x3d20747e	0.039173596
53	0x3d93026a	0.07178195
54	0x3d5b5be3	0.053554427
55	0xbe1c25b0	-0.15248752
56	0xbe7a01af	-0.24414705
57	0x3bb23bdd	0.005439265
58	0xbe4c6468	-0.19960177
59	0x3d1a3d25	0.03765597
60	0xbd15f3fa	-0.036609627
61	0x3e316e03	0.17327122
62	0xbdfde36b	-0.12396892
63	0xba3888b5	-0.0007039414
64	0x3d765dfa	0.060148217
65	0x3d411953	0.04714329
66	0x3d253352	0.040332146
67	0xbdc5f69b	-0.09666177
68	0xbd50e3bd	-0.05099844
69	0xbdea7368	-0.11447793
70	0xbac829d1	-0.0015271251
71	0xbe09417d	-0.13403888
72	0xbd6213bb	-0.055194598
73	0xbd9882e5	-0.07446841
74	0x3ca4e537	0.02012883
75	0x3e195f2b	0.1497771
76	0xbe114a71	-0.14188553
77	0x3dbc179c	0.09184191
78	0x3e2c7828	0.16842711
79	0x3cf4b0be	0.029869433
80	0xbd9e7f14	-0.07739082
81	0xbcc4af37	-0.02400933
82	0xbd1ef6b8	-0.038809508
83	0xbdb321dc	-0.087466925
84	0x3d56f2e0	0.052477717
85	0xbd27478d	-0.04083972
86	0x3cbf09de	0.023320135
87	0xbdeea50b	-0.11652573
88	0x3d56c787	0.052436378
89	0xbc5faab7	-0.013651541
90	0x3d09c61c	0.033636197
91	0xbe8cee7d	-0.27525702
92	0x3dfd463a	0.1236691
93	0xbe4c2713	-0.1993678
94	0xbd360d58	-0.04444632
95	0xbdb5d98b	-0.08879384
96	0x3dba7675	0.09104625
97	0xbe484eef	-0.19561361
98	0x3e88db8f	0.2673001
99	0xbd97115d	-0.07376359
100	0xbd74bc79	-0.059750054
101	0xbd1b6bb0	-0.037944496
102	0x3d7813a7	0.060565617
103	0x3e324c08	0.17411816
104	0x3da4d3b3	0.08048191
105	0x3cfc5654	0.030802883
106	0x3c3f50f7	0.011677018
107	0xbd696b61	-0.05698717
108	0xbe4561c4	-0.19275576
109	0xbce99712	-0.028514419
110	0x3df421f2	0.11920537
111	0xbe55f180	-0.20892906
112	0x3e528f32	0.20562437
113	0x3db32fba	0.087493375
114	0x3d68cde5	0.05683698
115	0xbd271a87	-0.040796783
116	0xbdde6ba5	-0.10860375
117	0xbc9e88d4	-0.019352354
118	0x3e0a4aeb	0.13505141
119	0xbd331ca0	-0.04372847
120	0x3db50fd1	0.08840907
121	0x3d60dec4	0.054899946
122	0x3d897cf7	0.06713288
123	0x3d8ae121	0.06781221
124	0x3dc3c470	0.09558952
125	0x3c9bbee0	0.019011915
126	0xbd0c2370	-0.034213483
127	0xbccbd8f3	-0.024883723

model.1.weight f4 [128, 128]
0	0xbc3c43c3	-0.011490765
1	0x3e4c6bf9	0.19963063
2	0xbda65fe5	-0.08123759
3	0x3cb81657	0.02247159
4	0xbcead201	-0.02866459
5	0xbccdc7d8	-0.025119707
6	0xbd352be0	-0.044231296
7	0x3d4628ca	0.048378743
8	0x3c955c68	0.01823254
9	0xbcd2a84d	-0.025715018
10	0x3d8eff3e	0.06982277
11	0x3baa87a9	0.00520416
12	0x3d705f1d	0.058684457
13	0x3d164fdd	0.036697257
14	0xbd0d792e	-0.034539394
15	0xbc65d412	-0.014027612
16	0xbd97a217	-0.07403963
17	0xbbfbd933	-0.0076858043
18	0xbcab6a05	-0.020924577
19	0xbcbef81a	-0.023311663
20	0x3c6f8c0b	0.014620791
21	0xbc7d3346	-0.015454119
22	0x3d4bde69	0.049772654
23	0x3d3f7bca	0.046748914
24	0xbd9672f8	-0.07346147
25	0x3bdfd4d3	0.0068307905
26	0x3d348e9e	0.044081323
27	0xbd3e0d6c	-0.04639952
28	0x3d6ceced	0.057843138
29	0xbd947d30	-0.0725044
30	0x3d3c14d4	0.0459183
31	0x3cf4c72d	0.02988013
32	0x3e3104e5	0.17287023
33	0xbdc0c4cf	-0.09412538
34	0x3d2716e6	0.040793322
35	0x3d6e65d7	0.05820259
36	0x3d1b779f	0.037955876
37	0x3ce1f58a	0.027582902
38	0x3d052a15	0.032510836
39	0xbd55f2ad	-0.052233387
40	0x3d4a35f0	0.049367845
41	0x3dce5a73	0.100758456
42	0x3d92c391	0.071662076
43	0xbd517b53	-0.051143
44	0x3d6011ec	0.05470459
45	0x3dd7746f	0.10520255
46	0x3e07ecb7	0.13273893
47	0x3bcf9271	0.006334596
48	0xbdf78ddb	-0.12087604
49	0x3d3a9072	0.04554791
50	0xbc1979bb	-0.009367402
51	0x3d4078ae	0.04699009
52	0xbcd5c7a3	-0.02609617
53	0xbdb3a3d4	-0.08771482
54	0x3e0c1a01	0.13681795
55	0x3d9c34f0	0.076272845
56	0x3cc9fba0	0.024656117
57	0xbc6604d0	-0.014039233
58	0x3dab2738	0.0835709
59	0xb9de20b0	-0.00042367494
60	0xbe4686a1	-0.19387294
61	0x3c8605b2	0.016360138
62	0x3dc20686	0.094739005
63	0x3d23a455	0.03995164
64	0x3d1df9f3	0.03856845
65	0xbd186e09	-0.037214313
66	0x3ce49885	0.027904758
67	0x3bc6ce0a	0.0060670422
68	0xbd6ec6b7	-0.058294978
69	0xba6b8085	-0.00089836895
70	0x3d34ec2b	0.04417054
71	0xbd425aed	-0.047449995
72	0xbcb09a79	-0.021558033
73	0x3d938fbf	0.07205152
74	0xbcd6986e	-0.026195731
75	0xbd6a58f2	-0.05721373
76	0xbd479f08	-0.04873565
77	0x3d247cda	0.04015813
78	0x3d9902e2	0.07471253
79	0xbd81f012	-0.06344618
80	0xbc51836a	-0.012787679
81	0xbca57f7b	-0.020202389
82	0xbd4714e1	-0.048603896
83	0x3d68bdf7	0.05682179
84	0xbd13bd86	-0.036069416
85	0x3cddbae2	0.027066652
86	0x3ab5e502	0.0013877454
87	0x3de5e4b0	0.11225259
88	0x3c8d8f72	0.017280314
89	0xbd8a95a5	-0.06766824
90	0xbc76b70d	-0.015058291
91	0xbd60689d	-0.054787267
92	0x3da0e6bb	0.07856508
93	0x3ceffd8c	0.029295705
94	0xbd1c2ca2	-0.038128503
95	0x3a2b1bef	0.0006527295
96	0x3cbdbd8e	0.023161676
97	0xbdc43cbd	-0.095818974
98	0x3dd3274e	0.10310231
99	0xbd85097e	-0.06495951
100	0xbd6dd91a	-0.058068372
101	0x3be97cf0	0.0071254894
102	0x3e1b0efc	0.15142435
103	0xbd0db26e	-0.034593992
104	0xbc691bcc	-0.014227819
105	0x3dda1b37	0.10649722
106	0x3d91c835	0.071182646
107	0xbdb56fd6	-0.08859222
108	0x3c67e303	0.014153245
109	0xbaba246c	-0.0014201528
110	0x3dbd6bb6	0.0924906
111	0xbd5b77a9	-0.053580914
112	0xbbdfa957	-0.006825607
113	0xba70bd26	-0.0009183459
114	0xbd6512a8	-0.055925995
115	0xbd2c4d8d	-0.042066146
116	0x3c49c4d5	0.012314995
117	0x3d2a6f4c	0.041610047
118	0x3d5c3b53	0.053767513
119	0xbce44196	-0.027863305
120	0x3d5e277a	0.054236867
121	0x3e08ba00	0.13352203
122	0x3d768273	0.060183
123	0xbdc7bfd0	-0.09753382
124	0x3daa6603	0.083202384
125	0xbd68b54a	-0.056813516
126	0xbda4fbdc	-0.08055851
127	0xbd96d19d	-0.07364199
128	0xbd8f921a	-0.070102885
129	0xbd93546c	-0.071938366
130	0xbda61cf3	-0.081109904
131	0xbd29635d	-0.041354526
132	0xbc4b7d7d	-0.012420055
133	0xbc8608c5	-0.016361604
134	0xbe16a123	-0.14709906
135	0x3b7c78d1	0.003852416
136	0xbca648df	-0.02029842
137	0xbd0ada83	-0.033899795
138	0xbcbbedb5	-0.022940496
139	0xbe0bc440	-0.13649082
140	0xbd0bbf66	-0.03411808
141	0x3ce4a9f9	0.02791308
142	0xbd4726ac	-0.048620865
143	0xbc0cbe1c	-0.0085902475
144	0xbc50cc5c	-0.012744036
145	0x3cc51769	0.024059014
146	0x3d982f94	0.0743095
147	0x3e05c0ea	0.13061872
148	0x3d5714cb	0.052510064
149	0xbd0a0fda	-0.033706523
150	0x3d87441d	0.066047885
151	0xbccdbdb3	-0.02511487
152	0xbd154545	-0.036443014
153	0xbb9c9316	-0.004778276
154	0xbce457c3	-0.02787388
155	0xbda6e91d	-0.081499316
156	0xbd866a32	-0.06563224
157	0x3dc80da7	0.09768229
158	0xbdc46003	-0.09588625
159	0x3c83f2d8	0.016107008
160	0xbd6faedf	-0.05851638
161	0xbd90ad73	-0.07064333
162	0x3ddeb76b	0.10874828
163	0x3b80f1b8	0.003935065
164	0xbb8d3bfd	-0.0043101297
165	0xbd4a1e30	-0.049345195
166	0x3d01933a	0.031634547
167	0x3d81523d	0.06314514
168	0x3d4337af	0.047660526
169	0xbe056160	-0.13025427
170	0x3d5cc18b	0.053895514
171	0xbd52f16a	-0.05149976
172	0xbd348005	-0.0440674
173	0x3c2348a2	0.0099660475
174	0xbd48d304	-0.049029365
175	0xbc570f14	-0.0131261535
176	0xbdb56e26	-0.088589
177	0x3d707f22	0.058714993
178	0x3d341882	0.043968685
179	0xbd9c7e53	-0.07641282
180	0x3c8ea442	0.017412309
181	0x3d7a37fe	0.061088555
182	0x3e2f398a	0.17111793
183	0x3d9345de	0.071910605
184	0xbd185bb8	-0.037196845
185	0x3db21bed	0.08696733
186	0x3b434a1a	0.0029798807
187	0x3969a732	0.00022282897
188	0xbd66031d	-0.056155313
189	0x3c7f451c	0.015580442
190	0xbc0a1c00	-0.008429527
191	0x3d9dde63	0.077084325
192	0x3be61006	0.007020953
193	0xbdb16c07	-0.08663183
194	0x3dc3448f	0.09534561
195	0xbd357711	-0.044303004
196	0x3c99b5f4	0.01876352
197	0xbbdada8f	-0.0066788862
198	0x3cd3f762	0.025874797
199	0x3d89d7ad	0.0673059
200	0xbdaebb25	-0.08531789
201	0xbc5399e5	-0.012915109
202	0x3c09e335	0.008415987
203	0x3d8fd95d	0.07023881
204	0x3de8f01c	0.11373922
205	0xbd0e6fd8	-0.03477463
206	0xbcdf532e	-0.027261343
207	0x3cd2625b	0.025681665
208	0x3c97d222	0.018532816
209	0xbc546a2c	-0.0129647665
210	0xbd4adc7d	-0.04952668
211	0xbc9b0a4b	-0.018925807
212	0xbdb5b1d9	-0.088718124
213	0xbe01ecf6	-0.1268805
214	0x3e020730	0.12698054
215	0xbdab485a	-0.08363409
216	0xbd41e831	-0.047340576
217	0xbda8dfb4	-0.08245793
218	0x3d1556f0	0.036459863
219	0x3b273175	0.0025511656
220	0xbd857e75	-0.065182604
221	0x3d8f246d	0.069893695
222	0xbd2503b6	-0.040286742
223	0xbd1c8f49	-0.038222585
224	0xbcc7477f	-0.024326084
225	0x3c85a996	0.016316216
226	0xbe08426b	-0.13306586
227	0xbd29aebc	-0.041426405
228	0x3d9147b2	0.07093753
229	0x3ccb6235	0.024827102
230	0x3e049530	0.12947536
231	0xbdcfd95d	-0.10148881
232	0x3c90509d	0.017616564
233	0xbd2374d2	-0.03990633
234	0x3e04d0f4	0.12970334
235	0xbca88619	-0.020571755
236	0xbc3c5f56	-0.011497339
237	0xbc72b6fa	-0.014814133
238	0x3d0e1b15	0.034693796
239	0x3d64b96d	0.0558409
240	0xbcf2d641	-0.02964318
241	0xbcc99ff7	-0.02461241
242	0x3e8c163b	0.2736071
243	0xbd435436	-0.04768773
244	0xbd6a8b3c	-0.05726169
245	0xbd4aaf2c	-0.049483463
246	0xbd902d51	-0.070398934
247	0x3c044527	0.008073128
248	0xbd523e26	-0.0513288
249	0x3c93ff27	0.018066002
250	0x3d817803	0.063217185
251	0x3da0df83	0.078551315
252	0xbc020d24	-0.007937703
253	0xbd3539d6	-0.04424461
254	0xbd2cefcd	-0.04222088
255	0xbe04c83c	-0.12967008

model.1.bias f4 [128]
0	0x3d5fe82e	0.054664783
1	0xbda0008a	-0.07812603
2	0x3db12f24	0.086515695
3	0xbe332253	-0.17493562
4	0x3d99bd05	0.07506756
5	0xbed6e3e1	-0.41970733
6	0x3ca78598	0.020449445
7	0xbee9154e	-0.45524067
8	0xbddd4933	-0.10804977
9	0xbd0722f6	-0.032992326
10	0xbe65da0b	-0.22446458
11	0x3d00d8c3	0.03145672
12	0xbd84e4ba	-0.06488939
13	0xbe6520cd	-0.22375794
14	0x3da8d27f	0.08243274
15	0x3ea5d88f	0.32391784
16	0xbdccfe78	-0.100094736
17	0x3c325d30	0.010886475
18	0xbd703092	-0.05864007
19	0x3f024616	0.5088819
20	0x3dd0df92	0.10198893
21	0xbe87599a	-0.26435548
22	0xbeb5ba4f	-0.35493705
23	0x3e958be2	0.29208285
24	0x3de81cc7	0.11333614
25	0xbe816975	-0.2527577
26	0x3d9c22e6	0.07623844
27	0xbc1b90f7	-0.0094950115
28	0xbe15b725	-0.14620645
29	0xbe086800	-0.13320923
30	0xbe98a83b	-0.2981585
31	0xbd94f146	-0.07272582
32	0xbd5ffec1	-0.05468631
33	0x3e77c034	0.24194413
34	0xbbd550aa	-0.00650986
35	0xbb5b7820	-0.0033488348
36	0x3de412d6	0.11136405
37	0xbed72df5	-0.4202725
38	0xbd8d0a86	-0.06886773
39	0x3d9a4b52	0.075338975
40	0x3c98da10	0.018658668
41	0xbd10ab4e	-0.03531962
42	0x3de23344	0.110449344
43	0x3d5a8f99	0.0533596
44	0xbce9bff5	-0.028533915
45	0x3d60c0d6	0.054871403
46	0x3df77b74	0.12084094
47	0xbdd4dffd	-0.10394285
48	0x3e2eb0b4	0.17059594
49	0x3e84b960	0.2592268
50	0x3c00a973	0.0078529
51	0xbe9e44c1	-0.3091183
52	0x3e82c1c2	0.2553845
53	0x3dd436d3	0.103620194
54	0xbe8c9776	-0.27459306
55	0xbda74937	-0.081682615
56	0x3c9a738d	0.018853927
57	0x3e68e3d9	0.22743167
58	0xbdedf72d	-0.11619411
59	0x3f048673	0.51767653
60	0x3c9cc26f	0.019135682
61	0x3e769e10	0.24083734
62	0xbad73436	-0.0016418758
63	0x3db8eba3	0.09029319
64	0x3d7ddbc3	0.06197716
65	0x3dbadfeb	0.0912474
66	0x3d956218	0.072941005
67	0xbebdf657	-0.37102005
68	0x3be097e7	0.0068540457
69	0x3e4840e4	0.19556004
70	0x3db67f5b	0.0891101
71	0x3d010cf9	0.031506512
72	0x3ea3fdfe	0.32029718
73	0xbec30a05	-0.38093582
74	0x3d9f50bd	0.077790715
75	0x3ddd513a	0.10806508
76	0xbda6eaab	-0.08150228
77	0xbdb14285	-0.08655266
78	0xbecf3b29	-0.40474823
79	0x3d40ee3f	0.04710221
80	0x3d3bb88a	0.045830287
81	0x3ca4d39b	0.020120433
82	0x3e9bec80	0.30453873
83	0xb9a401a6	-0.00031281746
84	0xbcf7baeb	-0.030240497
85	0xbd83a4f8	-0.0642795
86	0x3dc801e6	0.09765987
87	0xbebd6d43	-0.36997423
88	0x3d13d17a	0.036088444
89	0x3b8da788	0.00432295
90	0x3de145a8	0.10999614
91	0xbeb05fa7	-0.34447977
92	0xbea3215d	-0.31861392
93	0x3d5f4623	0.054510247
94	0x3e441e7a	0.19152251
95	0xbc02e75d	-0.007989732
96	0xbd2e7452	-0.0425914
97	0xbdafdb82	-0.0858679
98	0x3e66fe37	0.22557913
99	0x3d92c633	0.0716671
100	0xbd327b35	-0.04357453
101	0x3e11eb07	0.14249812
102	0xbdacd05c	-0.08438179
103	0x3d6a93a3	0.057269704
104	0x3ea4ac5a	0.32162744
105	0xbda1e572	-0.07905091
106	0xbd92f0f6	-0.07174866
107	0xbd4c6233	-0.049898338
108	0x3ebe8a86	0.3721506
109	0x3d9bcfa5	0.076079644
110	0x3c188aab	0.009310405
111	0x3e0d4945	0.13797481
112	0x3d9595e7	0.07303982
113	0xbdc538e0	-0.09629989
114	0xb87a8870	-5.9731712e-05
115	0x3e0678f1	0.13132073
116	0xbe7a25e4	-0.24428517
117	0x3d4f2f83	0.05058242
118	0x3d4c008c	0.04980521
119	0x3da04148	0.078249514
120	0x3cd209f9	0.025639521
121	0xbd5fd26d	-0.054644037
122	0x3da5f0cd	0.0810257
123	0xbea531cc	-0.32264555
124	0x3bd15c6c	0.0063891914
125	0x3da2b9b5	0.07945577
126	0x3c304f16	0.010761043
127	0xbe60450d	-0.21901341

model.2.weight f4 [64, 128]
0	0xbe14db63	-0.14536814
1	0xbc22e092	-0.009941237
2	0xbe07736d	-0.13227625
3	0x3d869861	0.06572033
4	0x3d1451b8	0.036210746
5	0xbce6c774	-0.028171279
6	0xbda65349	-0.08121354
7	0x3d03e06f	0.03219646
8	0x3d74cb21	0.05976403
9	0x3d3b7d8d	0.04577403
10	0xbc880ccc	-0.016607665
11	0xbc59d1f2	-0.013294684
12	0x3db5fb0c	0.08885774
13	0xbd85d353	-0.065344475
14	0xbddbe7a9	-0.10737545
15	0xbcae217d	-0.021256203
16	0x3dcba206	0.09943013
17	0xbd3080d6	-0.043091618
18	0x3b88e50e	0.004177696
19	0x3d7a78d2	0.06115038
20	0xbe3e60f6	-0.18591675
21	0x3c8ebe10	0.017424613
22	0x3ccbdc9d	0.02488547
23	0x3a93be76	0.0011271972
24	0x3c871865	0.016491124
25	0xbcaf4b05	-0.021398077
26	0x3d74b0c1	0.05973888
27	0x3d9ed532	0.077555075
28	0xbd2d5f76	-0.042327367
29	0x3d8b0432	0.067879096
30	0x3d94ac64	0.072594434
31	0xbe0484ee	-0.12941334
32	0x3d240680	0.04004526
33	0x3c7d0669	0.015443423
34	0xbc97e5dc	-0.018542223
35	0x3d3e3599	0.046437833
36	0xbd77a2f2	-0.06045813
37	0xbccffab5	-0.025388101
38	0x3bc7cfa5	0.006097751
39	0xbb77fb45	-0.0037838977
40	0xbdbfa2be	-0.093572125
41	0x3d0cc20f	0.034364756
42	0x3dad8695	0.08472935
43	0xbdada70d	-0.08479128
44	0x3bd6d583	0.0065562143
45	0x3c9255e1	0.017863216
46	0xbcf4e7d4	-0.0298957
47	0x3c9f45f0	0.019442528
48	0xbca9f18d	-0.020745063
49	0x3d1b4156	0.037904106
50	0x3c22f124	0.009945188
51	0xbd518438	-0.051151484
52	0x3d2676e5	0.04064073
53	0x3d186922	0.037209637
54	0xbcd6abd2	-0.026204977
55	0x3e041651	0.12899138
56	0xbc99014f	-0.018677382
57	0x3d42c84a	0.04755429
58	0xbdf3e165	-0.11908225
59	0xbd9a144f	-0.07523405
60	0xbd8703da	-0.065925315
61	0xbd8ec716	-0.069715664
62	0xbd308e74	-0.043104604
63	0x3d2e5424	0.04256071
64	0xb9c62d6e	-0.0003779935
65	0xbe208845	-0.15676983
66	0x3dba3653	0.09092393
67	0x3d0ba7ee	0.034095697
68	0x3cb995a8	0.02265437
69	0xbd2262bc	-0.03964494
70	0xbe076ccc	-0.13225096
71	0x3ae8c1de	0.0017757972
72	0xbcf8bf33	-0.030364608
73	0x3d1b4f7b	0.037917595
74	0xbc00df95	-0.007865806
75	0xbe4eca12	-0.20194271
76	0xbdb96e77	-0.090542726
77	0x3d5eadf6	0.05436512
78	0x3d80505b	0.062653266
79	0xbb4ee5ab	-0.0031569998
80	0xbd449526	-0.0479938
81	0xbd491223	-0.049089562
82	0xbdb5326e	-0.08847509
83	0x3dd4b55b	0.10386153
84	0x3dd753be	0.105140194
85	0xbd71918b	-0.05897669
86	0xbd4f7b57	-0.050654735
87	0xb9d0613e	-0.00039745303
88	0xbd7b40af	-0.061340984
89	0xbcdae3fc	-0.02672004
90	0xbdd9cd1b	-0.10634824
91	0xbd3217d5	-0.04347976
92	0xbd148858	-0.03626284
93	0xbe02d704	-0.12777334
94	0x3d347aa4	0.04406227
95	0xbcbc8145	-0.02301086
96	0xbb7c7a20	-0.003852494
97	0xbcb317d0	-0.02186194
98	0x3d55f405	0.05223467
99	0xbd32f5cb	-0.043691438
100	0x3cf52c17	0.02992825
101	0x3d88d790	0.0668174
102	0x3d4ecf49	0.05049065
103	0x3ce14e95	0.027503291
104	0x3c776f2b	0.015102188
105	0x3da2b5e1	0.07944847
106	0x3e101408	0.14070141
107	0xbd171f35	-0.036894996
108	0x3d683cae	0.056698494
109	0xbd6856cf	-0.056723412
110	0xbca71826	-0.020397257
111	0xbcf9b818	-0.03048329
112	0xbd66fbdb	-0.05639253
113	0xbd9305a4	-0.0717881
114	0xbd8f29ff	-0.06990432
115	0xbd21646b	-0.039402407
116	0x3d19b6e0	0.03752792
117	0xbd73280c	-0.059364364
118	0x3ca439a2	0.020047013
119	0x3d25225e	0.04031598
120	0x3da9861d	0.08277533
121	0xbdbccf31	-0.09219206
122	0x3c20800c	0.009796154
123	0x3ad73396	0.0016418572
124	0xbc6d4c4b	-0.014483522
125	0xbe2498cf	-0.16073917
126	0x3c89dfa0	0.016830266
127	0x3af931c2	0.0019012021
128	0xbd5d031a	-0.053958036
129	0x3d49d1e3	0.04927243
130	0xbd99bd1c	-0.07506773
131	0x3dc7becf	0.09753191
132	0x3d81a6fc	0.06330678
133	0xbd8328f0	-0.064042926
134	0xbd44d4f1	-0.04805464
135	0x3da8cd61	0.08242298
136	0xba0123de	-0.0004926304
137	0x3d19bee9	0.03753558
138	0xbd25d974	-0.040490583
139	0xbdb7d44c	-0.08976039
140	0xbda92639	-0.082592435
141	0x3d904c3e	0.07045792
142	0x3d8e3403	0.06943514
143	0x3d1310d3	0.035904717
144	0x3cd60cd0	0.026129156
145	0xbc8e1ae0	-0.0173468
146	0x3d93ab14	0.07210365
147	0xbd06feb5	-0.03295775
148	0x3c815dea	0.015791852
149	0x3d5db6e1	0.054129485
150	0xbd8b1265	-0.06790618
151	0x3d3baff9	0.045822117
152	0x3b4c6e1a	0.0031193555
153	0xbd19aa70	-0.037516057
154	0xbd6d2530	-0.057896793
155	0x3c9f83da	0.019472051
156	0xbbbaf2aa	-0.0057051973
157	0x3db22aa2	0.08699538
158	0xbd853e2f	-0.06506001
159	0xbd3a4c2a	-0.045482792
160	0xbd8835e7	-0.06650906
161	0xbd878153	-0.066164635
162	0x3d10c710	0.03534609
163	0xbcf2a25b	-0.029618433
164	0xbd2e4f3d	-0.042556036
165	0xbd1dd389	-0.038531814
166	0x3d19bd4d	0.037534047
167	0x3d8492fc	0.064733475
168	0x3d354164	0.044251814
169	0xbd429160	-0.04750192
170	0x3c95239d	0.018205458
171	0xbd716a7b	-0.05893944
172	0x3d6b02fa	0.057375886
173	0xbde08245	-0.10962347
174	0xbd817c6d	-0.063225605
175	0x3c64d994	0.01396789
176	0x3d5640f2	0.05230803
177	0xbda694d5	-0.08133856
178	0x3c3356e1	0.0109460065
179	0x3a3b4fb4	0.00071453606
180	0x3d92e30a	0.071722105
181	0xbce1f8eb	-0.027584514
182	0xbd94b31c	-0.07260725
183	0x3e07db28	0.13267195
184	0x3da608c6	0.08107142
185	0xbdc25fcf	-0.0949093
186	0x3d673e2c	0.056455776
187	0x3d418bc4	0.04725243
188	0x3df1297e	0.11775492
189	0xbd841c0d	-0.06450663
190	0x3dacb5e0	0.084331274
191	0x3d796b25	0.060893197
192	0xbdbe752e	-0.09299694
193	0x3da6fb5f	0.08153414
194	0x3c0b9a43	0.008520666
195	0x3dbe8736	0.09303133
196	0xbd932c0b	-0.07186135
197	0xbdcb4a65	-0.09926299
198	0x3db3a7cb	0.08772238
199	0x3c82cd35	0.015966991
200	0xbdaaea64	-0.08345488
201	0x3c8f1908	0.01746799
202	0xbda0272c	-0.078199714
203	0xbc436a59	-0.011927211
204	0xbbb8818f	-0.005630679
205	0xbc5c3235	-0.013439705
206	0xbda1eb9a	-0.079062656
207	0xbc025714	-0.007955331
208	0x3bf5ff22	0.007507221
209	0x3dba16dd	0.09086392
210	0x38548fe8	5.0678762e-05
211	0xbcb172ab	-0.021661123
212	0x3cc39848	0.023876324
213	0x3cf2f560	0.02965802
214	0x3d762190	0.0600906
215	0x3d9395c9	0.072063036
216	0xbbe02016	-0.0068397624
217	0x3e1022fd	0.14075847
218	0x3d0af66b	0.03392641
219	0x3dbd68dd	0.09248517
220	0x3b8a35d0	0.0042178407
221	0x3c9cdd40	0.019148469
222	0xbd922e61	-0.07137752
223	0x3cb31247	0.021859301
224	0xbc89f8ba	-0.016842235
225	0x3daa711c	0.08322355
226	0x3d579dc2	0.052640684
227	0x3d8ba9f1	0.06819523
228	0xbd82fc7a	-0.06395812
229	0xbd9b1d78	-0.0757398
230	0xbcc00ab0	-0.023442596
231	0xbd7c99c0	-0.061670065
232	0x3d7232c4	0.059130445
233	0xbc59967c	-0.013280507
234	0xbd9aa641	-0.07551242
235	0xbd921506	-0.07132916
236	0x3cbc314a	0.022972722
237	0x3ca92815	0.020648995
238	0xbd33ea7b	-0.04392479
239	0xbd9f1cb4	-0.077691466
240	0x3da0d057	0.07852238
241	0xbc84ee91	-0.016227039
242	0xbd8eab5e	-0.069662794
243	0xbdac36cb	-0.084088884
244	0x3bde5644	0.006785186
245	0xbc999c72	-0.018751357
246	0x3d261863	0.0405506
247	0xbd6a12dd	-0.057146896
248	0xbc94a93d	-0.018147105
249	0xbd416629	-0.04721657
250	0x3d045bac	0.032313988
251	0xbd5fa408	-0.05459979
252	0xbc9418d7	-0.01807825
253	0xbd15e0bf	-0.036591288
254	0xbc503957	-0.012708983
255	0x3cc559d6	0.024090689

model.2.bias f4 [64]
0	0xbc5a78af	-0.013334437
1	0x3e246d57	0.16057335
2	0xbdc951ec	-0.098300785
3	0xbf366faf	-0.71264166
4	0x3e2adef1	0.16686608
5	0xbddab228	-0.10678512
6	0x3cfd8c35	0.030950645
7	0xbd0f7359	-0.035022113
8	0xbd1aea18	-0.037820905
9	0xbe5b8c9a	-0.21440354
10	0x3f27e548	0.6558423
11	0x3cecc5fb	0.028902998
12	0xbe26e5a6	-0.16298541
13	0xbda055fb	-0.078288995
14	0xbf21f24e	-0.6326035
15	0xbdad1d06	-0.084528014
16	0x3ddb86ff	0.10719108
17	0x3e58b712	0.21163586
18	0xbcb7b854	-0.022426762
19	0xbd74c596	-0.059758745
20	0xbdab64cf	-0.08368837
21	0xbcaaa4ec	-0.020830594
22	0x3d876ad1	0.066121705
23	0xbdd3af40	-0.10336161
24	0xbea73956	-0.3266093
25	0xbe092769	-0.1339394
26	0x3e067498	0.13130414
27	0xbd20b51f	-0.03923523
28	0xbdf5560f	-0.11979305
29	0x3f256503	0.64607257
30	0xbc990cd4	-0.018682875
31	0x3f4239e7	0.758696
32	0xbe7d850b	-0.24757783
33	0x3e4a5915	0.19760545
34	0xbef33b31	-0.47506097
35	0x3c9ebbe5	0.019376704
36	0x3dab90b9	0.08377213
37	0xbb616220	-0.0034390762
38	0xbf420d48	-0.75801516
39	0x3cd43fc3	0.02590931
40	0xbdde19cb	-0.10844763
41	0xbe6935b9	-0.227744
42	0x3d52538c	0.051349208
43	0x3e407ce7	0.18797646
44	0xbe128f03	-0.14312367
45	0xbec57bc4	-0.38570988
46	0x3e3b6a8d	0.18302365
47	0xbf2526a2	-0.64512074
48	0xbe224233	-0.15845565
49	0x3eec1130	0.46106863
50	0x3d1391de	0.03602778
51	0x3c12dd2b	0.008963863
52	0xbdcef1b3	-0.10104694
53	0x3efe1e03	0.49632272
54	0xbc5bf749	-0.013425657
55	0xbe5622b3	-0.20911674
56	0x3ea6781d	0.32513514
57	0x3ddd1ee7	0.1079691
58	0xbd8d5103	-0.069002174
59	0x3d397a17	0.04528245
60	0x3d648045	0.05578639
61	0x3e61cc38	0.2205056
62	0x3f1ef80d	0.62097245
63	0xbdb165a0	-0.086619616

model.3.weight f4 [16, 64]
0	0xbb9e0450	-0.0048222914
1	0xbd44474f	-0.047919568
2	0x3cf00e4a	0.029303689
3	0xbd83e88c	-0.06440839
4	0xbd209906	-0.039208435
5	0x3d352c1e	0.044231527
6	0xbd8b84f1	-0.06812466
7	0xbcac3a52	-0.021023903
8	0x3da3ac2f	0.07991826
9	0x3c659449	0.014012405
10	0xbd972601	-0.073802955
11	0xbe04083a	-0.12893763
12	0x3d69d86e	0.05709117
13	0xbce52f18	-0.027976558
14	0x3ca137f7	0.019680006
15	0xbde88f10	-0.11355412
16	0x3cd95f7a	0.026534785
17	0x3bb8d72d	0.0056408853
18	0xbddf76e1	-0.10911346
19	0x3d03a7a8	0.03214231
20	0x3c346157	0.011009536
21	0x3c3e68fe	0.011621712
22	0x3da80349	0.082037516
23	0xbbf2db3f	-0.00741139
24	0xbb99e3f9	-0.004696366
25	0x3d872ec6	0.06600718
26	0xbde28bfc	-0.11061856
27	0x3def55df	0.116863005
28	0x3b3a8ac8	0.0028464068
29	0xbdbb5ead	-0.09148917
30	0xbd81445a	-0.06311865
31	0x3d61f4b4	0.055165008
32	0x3dcade54	0.09905687
33	0xbc141b6e	-0.009039743
34	0x3e126840	0.1429758
35	0x3d0e4c8f	0.03474098
36	0xbd6b3874	-0.057426885
37	0xbe32b19e	-0.17450568
38	0x3da5301d	0.080658175
39	0x3cf0c2ca	0.029389758
40	0xbd97af0a	-0.07406433
41	0x3cfc8473	0.030824875
42	0xbdf07674	-0.11741343
43	0xbd832188	-0.0640288
44	0x3d196338	0.037448138
45	0x3da9a6d1	0.08283771
46	0x3d808207	0.06274801
47	0xbdca997b	-0.09892555
48	0xbd3f2961	-0.04667032
49	0xbc258bec	-0.010104161
50	0x3d222b07	0.039591815
51	0x3d9c5abe	0.07634495
52	0xbd0d9118	-0.0345622
53	0xbcf3fade	-0.029782709
54	0xbd746b4e	-0.059672646
55	0x3d045418	0.03230676
56	0xbde06dcc	-0.10958442
57	0xbb28e0a3	-0.002576866
58	0xbd8cbf72	-0.06872453
59	0xbc981a80	-0.018567324
60	0xbd03dd8b	-0.0321937
61	0x3d676e3c	0.056501612
62	0x3dbe8193	0.09302058
63	0xbd66d8c1	-0.056359056
64	0x3d9f6f0d	0.07784853
65	0x3cda357f	0.026636837
66	0x3d649590	0.055806696
67	0xbdf2b1a7	-0.11850291
68	0x3df16010	0.117859006
69	0xbdc73952	-0.0972773
70	0xbdc1107b	-0.094269715
71	0x3d8dc0bb	0.06921526
72	0xbdba78a1	-0.091050394
73	0xbdb71efa	-0.08941455
74	0xbd201eda	-0.039091922
75	0xbd52a139	-0.051423285
76	0x3db612f7	0.08890336
77	0x3d6f2f51	0.058394734
78	0x3c14f0f9	0.0090906555
79	0x3db3531a	0.08756085
80	0x3e094944	0.13406855
81	0x3bf2c220	0.0074083954
82	0xbda8bac7	-0.0823875
83	0x3debe2e3	0.115178846
84	0x3cc7d0be	0.024391528
85	0x3d94972a	0.07255395
86	0xbd7e166d	-0.062033106
87	0xbdc1076e	-0.09425245
88	0x3d097133	0.03355522
89	0x3e126fac	0.14300412
90	0xbc14807e	-0.009063838
91	0xbd94e665	-0.07270507
92	0x3d93e869	0.07222063
93	0xbdb4c01e	-0.08825706
94	0x3c0fa9b9	0.008768492
95	0xbd7ad398	-0.061236948
96	0xbcc3e5c8	-0.02391328
97	0x3e03f3e3	0.12886004
98	0xbe24ec09	-0.16105665
99	0xbe04ebaa	-0.12980524
100	0xbd749165	-0.05970897
101	0x3da36f8b	0.079802595
102	0xbdb5b4d7	-0.08872383
103	0xbd451d0d	-0.048123408
104	0xbdde0acc	-0.10841903
105	0xbe138819	-0.14407386
106	0x3c38eeed	0.011287433
107	0x3cc40c59	0.02393167
108	0x3c6ac02c	0.014328044
109	0x3c1c7a69	0.009550669
110	0xbd182c91	-0.037151877
111	0xbc5866e6	-0.013208127
112	0xbccd64b3	-0.025072431
113	0x3db6164b	0.08890971
114	0x3df7827a	0.12085433
115	0x3e09061b	0.13381235
116	0x3d847d24	0.06469181
117	0x3ae59e6e	0.0017518529
118	0x3c9236c0	0.017848372
119	0x3cfc7d2e	0.03082141
120	0x3d8ab7d2	0.06773342
121	0x3cc043d2	0.02346984
122	0x3d00edb5	0.031476695
123	0xbcffd0ae	-0.031227436
124	0x3dc98255	0.09839312
125	0x3cc8bce2	0.024504129
126	0xbda5e443	-0.08100178
127	0xbb7e02a5	-0.00387589
128	0x3defaa96	0.117024586
129	0x3d86b51b	0.06577512
130	0xbddcd122	-0.107820764
131	0x3b276364	0.002554142
132	0x3d457173	0.048203897
133	0x3caa282e	0.020771112
134	0xbc8cc027	-0.01718147
135	0x3d971cbf	0.0737853
136	0xbd377e2d	-0.044798065
137	0xbc19d0e4	-0.009388182
138	0xbcc7ae53	-0.024375116
139	0x3d32a231	0.04361171
140	0x3cd7ed96	0.026358407
141	0x3cfb2e18	0.030661628
142	0xbc0781fd	-0.008270738
143	0x3cbe0f74	0.023200728
144	0xbe5df0a8	-0.21673834
145	0xbd82933e	-0.063757405
146	0x3a6c951e	0.0009024906
147	0xbd8a6909	-0.06758315
148	0x3de04bb1	0.10951937
149	0xbd731498	-0.05934581
150	0x3e170b5a	0.14750424
151	0xbda53f26	-0.08068685
152	0xbc16ba69	-0.009199717
153	0x3d99f18c	0.075167745
154	0x3c5b5422	0.013386758
155	0x3d780c1b	0.06055842
156	0xbd1aa09f	-0.037750836
157	0xbc7d95e9	-0.015477636
158	0xbd33d92d	-0.043908287
159	0x3cc87213	0.024468457
160	0xbdb1674b	-0.0866228
161	0xbc8a1f34	-0.016860582
162	0xbd75396a	-0.059869207
163	0x3e226157	0.15857445
164	0x3cffc0a0	0.03121978
165	0xbc9f36af	-0.019435255
166	0x3dc04939	0.09388966
167	0x3cafb975	0.021450737
168	0xbcc90536	-0.024538618
169	0xbd4bb0fd	-0.049729336
170	0xbd9b2804	-0.07575992
171	0x3c72a72e	0.014810367
172	0xbb01f24d	-0.001982826
173	0xbd64ffcd	-0.055908013
174	0xbcc93376	-0.024560671
175	0xbc66152a	-0.014043132
176	0x3b867945	0.004103812
177	0x3d432a09	0.04764751
178	0x3bd240a2	0.0064163962
179	0xbd3423f5	-0.043979604
180	0xbcaff1bf	-0.021477578
181	0xbdedd1a7	-0.11612254
182	0x3d664aaf	0.056223568
183	0x3c9961c3	0.018723374
184	0xbd0ba3d9	-0.034091804
185	0xbdcc0978	-0.099627435
186	0xbcb0ce9c	-0.021582894
187	0xbc8e7394	-0.017389096
188	0x3bb965ed	0.0056579025
189	0x3c32374e	0.0108774435
190	0x3e04dfe7	0.12976037
191	0x3cea6526	0.028612684
192	0x3d03b8bf	0.03215861
193	0x3de78e79	0.113064714
194	0xbceea0ff	-0.029129503
195	0x3e1ff765	0.15621717
196	0x3d5f2703	0.054480564
197	0xbc63490e	-0.013872398
198	0xbd1af965	-0.037835497
199	0xbd1eafaa	-0.038741745
200	0x3d5ecea2	0.05439628
201	0xbc9fcc8d	-0.019506717
202	0xbdfbafb0	-0.12289369
203	0xbd367d1e	-0.044552915
204	0xbc9ca641	-0.019122245
205	0x3d27293f	0.04081082
206	0x3e32825f	0.17432545
207	0xbd3394f4	-0.043843225
208	0x3a683eb6	0.00088594423
209	0xbca5405c	-0.02017229
210	0xbd2ba84a	-0.04190854
211	0x3d19683e	0.03745293
212	0x3d693d14	0.056943014
213	0xbc3615a1	-0.011113555
214	0xbd0cd15e	-0.034379356
215	0x3d9569b1	0.0729555
216	0x3b1f6d02	0.0024326448
217	0xbd9dc2f8	-0.07703203
218	0x3da413d1	0.08011592
219	0xbcc54377	-0.024080021
220	0x3c99bf7e	0.018768068
221	0xbe43dff4	-0.191284
222	0xbe11e8b6	-0.14248928
223	0xbe421a4f	-0.18955348
224	0x3d79fc20	0.06103146
225	0x3de7f548	0.113260806
226	0x3d43d860	0.047813773
227	0x3d9b5634	0.07584801
228	0xbd8e668d	-0.06953154
229	0xbc96e019	-0.018417405
230	0x3e3b59c9	0.18295969
231	0x3d6cf507	0.057850864
232	0xbdc06c2a	-0.09395631
233	0x3dd2a4cd	0.102853395
234	0xbddc8e59	-0.10769338
235	0xbd679906	-0.05654242
236	0x3cbd4602	0.023104671
237	0x3d8d3b80	0.06896114
238	0xbd3f4e6b	-0.046705645
239	0x3e472290	0.19446778
240	0xbde624bd	-0.11237476
241	0xbcd19688	-0.025584474
242	0xbcf6d391	-0.03013018
243	0x3dbd0d15	0.09231011
244	0x3ce4f510	0.027948886
245	0x3c567367	0.0130890375
246	0x3dad8a0d	0.08473597
247	0x3d890933	0.06691208
248	0xbd458fdb	-0.048232894
249	0xbd3dd62d	-0.046346832
250	0x3d893f13	0.067014836
251	0x3d7a821d	0.061159242
252	0x3db4d8b6	0.08830397
253	0x3d44905c	0.047989234
254	0xbdb4de81	-0.08831502
255	0xbde6ac6b	-0.11263355

model.3.bias f4 [16]
0	0x3ea9f1ba	0.33192235
1	0xbeffdd16	-0.49973363
2	0x3d9e3d0d	0.07726488
3	0xbf3fe9f6	-0.7496637
4	0x3d582bcd	0.052776147
5	0x3f623c65	0.88373405
6	0xbe5511fb	-0.2080764
7	0x3eac2506	0.33621997
8	0x3dde53c8	0.10855824
9	0x3e8697e0	0.26287746
10	0xbd89b367	-0.067236714
11	0xbebdd398	-0.37075496
12	0xbf5918bd	-0.8480337
13	0x3f408641	0.75204855
14	0x3da2e38b	0.079535566
15	0xbec17055	-0.37781015

model.4.weight f4 [1, 16]
0	0x3ac3dca1	0.0014943072
1	0xbc1615d9	-0.009160482
2	0xbab1a0a8	-0.0013551908
3	0xbe0941c9	-0.13404001
4	0xbaedae03	-0.0018133525
5	0x3e0ffa2b	0.14060275
6	0xbb77bfab	-0.0037803452
7	0x3b60ba99	0.0034290908
8	0xb9ecdb78	-0.00045176945
9	0x3a2571ce	0.00063112087
10	0x3a7a29fa	0.0009542998
11	0x3b3cb53f	0.0028794555
12	0xbe15892c	-0.14603108
13	0x3dc5593d	0.096361615
14	0x3a9a3094	0.0011763745
15	0xbc9bccdf	-0.019018589
